Labs/05/models/penguin_classifier.pt (torch, 3801 bytes, 6 tensors)

fc1.weight f4 [10, 4]
0	0xbb755400	-0.00374341
1	0x3e89545e	0.2682218
2	0xbed2b316	-0.41152257
3	0xbebc6680	-0.3679695
4	0xbe3775e0	-0.1791606
5	0xbdb78351	-0.089605935
6	0x3df28c0b	0.11843117
7	0x3f049d6e	0.5180272
8	0xbd35bf70	-0.044372022
9	0x3e077b4c	0.13230628
10	0xbe1abbac	-0.15110654
11	0xbdc94870	-0.098282695
12	0xbef491b8	-0.47767425
13	0xbea98b52	-0.33114105
14	0xbe530ee8	-0.20611155
15	0x3c97bb00	0.018521786
16	0x3e622a9f	0.22086571
17	0x3f1236f8	0.57115126
18	0xbecd3dff	-0.40086362
19	0xbe3f7627	-0.18697415
20	0x3ea1b11f	0.31580445
21	0x3e7db724	0.24776894
22	0xbe4ed98d	-0.20200177
23	0x3ecc3d45	0.39890495
24	0xbda50d40	-0.08059168
25	0x3d58b510	0.05290705
26	0x3ee7cd4a	0.4527381
27	0xbeed7bce	-0.46383518
28	0xbeb587cd	-0.3545517
29	0xbe21c36f	-0.15797208
30	0xbe6efac7	-0.23337851
31	0x3ec8672f	0.39141223
32	0xbea5ef1a	-0.32408983
33	0xbe6bb0c0	-0.23016644
34	0xbeb2da1a	-0.34932023
35	0xbeefc276	-0.4682805
36	0xbef26e4a	-0.4734977
37	0x3f4cdf6d	0.8002842
38	0x3e9a860e	0.301804
39	0x3e1e25de	0.15444133

fc1.bias f4 [10]
0	0x3cd76a40	0.026295781
1	0xbe546c61	-0.20744468
2	0x3dad3ec0	0.08459234
3	0xbeef069e	-0.46684736
4	0xbeb632fe	-0.3558578
5	0xbee87feb	-0.45410094
6	0x3ea18526	0.31546897
7	0x3e83bb79	0.25728968
8	0xbe6311c8	-0.22174752
9	0x3e7a42b2	0.24439505

fc2.weight f4 [10, 10]
0	0x3e4f19cc	0.20224684
1	0x3ea0f56e	0.31437248
2	0x3e00846d	0.12550516
3	0x3d2efb49	0.042720113
4	0x3e591d72	0.21202639
5	0xbe3eaa12	-0.18619564
6	0x3d715d9a	0.058927156
7	0xbe7b0eaa	-0.24517313
8	0xbe606ee9	-0.21917309
9	0xbe274756	-0.16335806
10	0x3e1284c1	0.14308454
11	0x3da5dd19	0.08098812
12	0xbe3fd05f	-0.18731831
13	0x3dc3a7ac	0.09553465
14	0x3f3f5fd9	0.74755627
15	0xbc3fd439	-0.011708313
16	0x3c45d24c	0.012074064
17	0x3d166669	0.03671876
18	0x3e48e37d	0.1961803
19	0x3f37bd18	0.7177291
20	0xbe798a8b	-0.24369256
21	0xbdc476f5	-0.09593002
22	0x3dfe86d9	0.12428064
23	0x3e862637	0.2620103
24	0x3ee17437	0.44033977
25	0x3ea7bdac	0.32761896
26	0x3d80e380	0.06293392
27	0xbe7862e4	-0.24256474
28	0x3cee4f5f	0.029090581
29	0xbf24d5bf	-0.6438865
30	0xbe96e433	-0.29470977
31	0x3edfb800	0.43695068
32	0x3e7637b4	0.24044687
33	0xbea18225	-0.31544605
34	0xbf26e122	-0.65187275
35	0xbd09f205	-0.033678073
36	0xbd5526a4	-0.052038804
37	0xbdc7123a	-0.09720273
38	0x3df90d45	0.12160734
39	0xbee559b8	-0.44795012
40	0x3ded6acc	0.115926355
41	0x3e23c1ca	0.15991893
42	0x3e67cfc2	0.22637847
43	0x3df22862	0.11824109
44	0xbea03f25	-0.31298175
45	0xbe520f2a	-0.20513597
46	0x3e21afd3	0.15789728
47	0x3d878cff	0.0661869
48	0xbe7c9aca	-0.24668422
49	0xbe3a75d4	-0.1820901
50	0x3e9850bf	0.29749104
51	0x3eadff11	0.33983663
52	0xbe0d3145	-0.13788326
53	0xbda2ffef	-0.07958972
54	0xbf807b4f	-1.0037631
55	0x3d24527f	0.040117737
56	0xbe73da7c	-0.23813814
57	0xbe578888	-0.21048176
58	0xbc8ebcd4	-0.017424025
59	0xbe5b3e24	-0.21410424
60	0xbe049ceb	-0.12950484
61	0x3e402559	0.18764247
62	0xbe450e32	-0.19243696
63	0x3e92e93a	0.28693563
64	0x3e5de973	0.21671085
65	0xbe8888e7	-0.26666948
66	0xbda12fa2	-0.07870413
67	0x3c69c8a2	0.014269026
68	0x3d3cfb2c	0.046137974
69	0x3d999a2c	0.07500109
70	0x3dfe266b	0.124096714
71	0x3c9b2c74	0.018942095
72	0xbe1dffef	-0.15429662
73	0x3e193a0c	0.1496355
74	0xbe9b4f87	-0.30334112
75	0xbe3fedbb	-0.1874303
76	0xbda21f4b	-0.07916125
77	0xbe1dbc57	-0.15403877
78	0xbde2906c	-0.110627025
79	0xbe84b42d	-0.25918713
80	0xbd89c2fc	-0.067266434
81	0x3e29f885	0.16598709
82	0xbe52f4b2	-0.20601156
83	0xbc84f1db	-0.016228607
84	0xbdd9c485	-0.10633186
85	0xbda011df	-0.07815909
86	0x3c0ffe5b	0.00878867
87	0x3b93c4a9	0.0045095277
88	0x3d8311b4	0.06399861
89	0x3eee4d52	0.46543366
90	0x3e995e09	0.29954556
91	0x3e4da45d	0.20082231
92	0x3e99b7de	0.30023092
93	0xbcbb5a1b	-0.022870114
94	0xbe91722c	-0.2840742
95	0xbe1983ae	-0.14991638
96	0x3e5c7d25	0.21532114
97	0xbb06584d	-0.0020499409
98	0xbe20f3c2	-0.15717986
99	0xbe78251c	-0.24232906

fc2.bias f4 [10]
0	0xbe9785c3	-0.2959424
1	0xbdbb30c5	-0.091401614
2	0xbe76b1e2	-0.24091294
3	0x3decb307	0.11557584
4	0x3e2f11a3	0.17096572
5	0xbea51a85	-0.32246795
6	0x3e49fdcb	0.1972572
7	0xbe7d63da	-0.24745122
8	0x3d10419b	0.035218816
9	0xbe034c8d	-0.1282217

fc3.weight f4 [3, 10]
0	0xbd797d13	-0.060910296
1	0xbd7e510d	-0.062089015
2	0xbe9149e7	-0.28376696
3	0xbe8bcc4c	-0.27304304
4	0xbd4aaed9	-0.049483154
5	0x3b860156	0.0040895147
6	0xbe131a1f	-0.14365433
7	0x3df3f6a1	0.11912275
8	0xbe91ba2a	-0.28462344
9	0xbcaed408	-0.021341339
10	0x3e8e62b6	0.27809685
11	0xbed37515	-0.41300264
12	0x3e8bd3e2	0.2731009
13	0x3f3b20b6	0.7309679
14	0xbe921dbf	-0.2853832
15	0x3f270df2	0.65255654
16	0xbd157785	-0.036490936
17	0xbe108de2	-0.14116624
18	0xbb94f2f9	-0.004545566
19	0xbe82d66b	-0.25554213
20	0x3d0afd1e	0.033932798
21	0xbe4589d6	-0.19290861
22	0x3f3826d1	0.7193423
23	0xbe9f213b	-0.3108004
24	0x3e1b988e	0.15194914
25	0xbea9b0be	-0.33142656
26	0xbd9bbd5d	-0.076044776
27	0xbd883379	-0.06650443
28	0xbf8eea79	-1.1165305
29	0x3e2f755e	0.17134616

fc3.bias f4 [3]
0	0x3e808d49	0.25107792
1	0x3dd5f6cb	0.10447463
2	0xbe779cbb	-0.24180882
